model-params/classifier.pth (torch, 51955 bytes, 2 tensors)

0.weight f4 [16, 784]
000000 9c 44 44 3c 38 96 51 bc fc c6 01 bd 12 e0 bc 3c
       0.011979248 -0.012792163 -0.031683907 0.023056064
000010 98 a1 8d bb e6 58 1a bc 86 fd a2 3c fc 88 82 bc
       -0.004322242 -0.009420609 0.01989628 -0.01593446
000020 38 dc ad bb 2c 68 c9 3c 70 8d db bb 3a 23 f6 bc
       -0.005305793 0.024585806 -0.0067002103 -0.030046094
000030 6e 0b c0 bc d0 28 91 3b fe df ea bc 0e a3 a7 bc
       -0.02344295 0.004429914 -0.02867126 -0.020463493
000040 d0 10 10 3b c8 b4 f1 bc 78 18 aa 3b 08 fa e6 bb
       0.0021982677 -0.029505149 0.005190905 -0.007048849
000050 a0 fb db ba dc 25 a6 bc 7c fa 43 bc 23 63 b5 bc
       -0.0016783364 -0.020281725 -0.011961576 -0.022141999
000060 78 43 11 3c 02 b3 e1 3c 68 30 54 3c 06 43 b6 3c
       0.008866183 0.027551178 0.012950994 0.022248756
000070 a4 0d 58 3c 1c ea eb bc e2 4e fe 3c 18 4f c2 bc
       0.013186846 -0.028798155 0.031043474 -0.023719355
000080 e0 2e 70 bb 76 93 11 bd e0 b6 a4 3a 31 07 e5 bc
       -0.0036649033 -0.03554102 0.0012566708 -0.02795753
000090 ec 67 bc bc 98 a9 c0 bc 06 6e 2f bc 27 6c 09 bd
       -0.022998773 -0.023518369 -0.010707384 -0.033550408
0000a0 60 e8 55 3c bc 3a 80 3c 40 98 82 3a 20 2b a8 ba
       0.013055891 0.015653007 0.0009963587 -0.0012830235
0000b0 90 27 ab 3c 0e 33 5d bc b0 72 93 3b 41 4a 10 3d
       0.020892888 -0.013500942 0.004499756 0.035227064
0000c0 a8 e5 85 3c 86 6f 1f bc 50 bc a5 3b 7a 2a a8 3c
       0.01634486 -0.009731179 0.005057849 0.020528067
0000d0 c2 6b 02 bd 25 be bf bc 06 7e 61 bc 24 9f 63 3c
       -0.031841047 -0.023406098 -0.0137629565 0.013892923
0000e0 73 89 0d 3d 50 b1 99 3b 6e 68 a6 bc e0 75 8b 3c
       0.03455491 0.0046903268 -0.020313468 0.01702398
0000f0 40 df 2a bc da 98 cc bc 4c d0 b0 bc 35 e0 cd bc
       -0.0104292035 -0.024975229 -0.021583699 -0.025131324
000100 87 dd 9a bc 45 c2 0c bd 5a 21 a1 3c 68 71 b5 3b
       -0.01890446 -0.034364957 0.019669224 0.0055372007
000110 b8 f7 57 3c 20 be 80 3a e8 2b 99 3b 95 6d a9 be
       0.013181619 0.0009822287 0.0046744235 -0.33091417
000120 54 82 97 be 89 d3 8b be a8 26 98 be 39 95 a1 be
       -0.2959162 -0.27309826 -0.29716992 -0.3155916
000130 fa d7 a0 be 20 54 4b bc 83 b1 11 3d c5 77 f4 bc
       -0.31414777 -0.012410194 0.03556968 -0.029842267
000140 20 b4 c2 3c 33 60 c6 bc 07 92 86 bc da 44 94 bc
       0.02376753 -0.024215793 -0.016427053 -0.018099237
000150 93 3e 08 bd 00 f1 23 bc 66 eb a4 3c b5 b9 e8 bc
       -0.0332628 -0.010006189 0.020131778 -0.028408865
000160 a6 3e 07 bd 72 a2 8b 3c 20 8e ae ba 78 84 93 bb
       -0.03301873 0.017045233 -0.0013317503 -0.0045018755
000170 e3 b5 e2 bc 24 9a 8d be c5 84 a4 be e3 ec 98 be
       -0.027674621 -0.27656662 -0.32132545 -0.2986823
000180 4f e2 a2 be 0f 19 9e be a6 1e a6 be d0 ac 87 be
       -0.31813285 -0.30878493 -0.32445258 -0.26499033
000190 bf 8e 9b be 46 3d 90 be ad 5a 87 be 2d a5 a4 be
       -0.30382344 -0.28171748 -0.26436368 -0.3215727
0001a0 5e 84 93 be f8 71 d0 bc 98 c1 ac bc 50 7d 68 bb
       -0.28811926 -0.02544497 -0.021088406 -0.0035475083
0001b0 68 28 a5 3b 18 20 9e 3b b4 98 34 3c 8c 53 d1 3c
       0.005040217 0.004825603 0.011022735 0.025552534
0001c0 00 65 56 b9 0e 9e a7 bc 50 22 ad 3b 63 66 b4 bc
       -0.00020446256 -0.020461109 0.0052836314 -0.022021478
0001d0 60 0b 9e 3c 6a 41 bb bc a9 7b 0b 3d 4d f4 a4 be
       0.019292533 -0.02285834 0.03405348 -0.32217637
0001e0 be b2 a3 be e9 b1 a2 be 55 27 8c be 5d ea 90 be
       -0.31972307 -0.3177636 -0.27373758 -0.28303805
0001f0 c6 cd a7 be 3f b3 a1 be 2a 64 9c be 26 53 93 be
       -0.3277418 -0.31582066 -0.3054517 -0.28774375
000200 7e 5c 90 be 63 9b a8 be 29 13 8f be 7b a8 ab be
       -0.28195566 -0.3293105 -0.27944306 -0.33526978
000210 09 9a a8 be c8 c0 9f 3e 80 88 a5 3e 08 43 a9 3e
       -0.3293002 0.31201768 0.32330704 0.33058953
000220 9c 8e 80 3e be 26 a5 3c a0 4c 98 3a 2a 2a e8 bc
       0.25108802 0.020160075 0.0011619516 -0.028340418
000230 d8 d0 11 bd 90 b1 4f bb 36 72 b6 3c 16 7d 94 3c
       -0.03559956 -0.003169153 0.022271257 0.018126052
000240 00 f2 fb 3a 7e 33 93 bc 7a 9d 94 be 65 17 98 be
       0.0019221902 -0.01796889 -0.29026395 -0.2970535
000250 64 c5 8c be fb c0 92 be 6a d9 a0 be db 8e 8b be
       -0.27494347 -0.28662857 -0.31415874 -0.27257428
000260 22 93 93 be 90 32 8c be 05 07 a1 be 04 ec 8e be
       -0.2882319 -0.27382326 -0.31450668 -0.2791444
000270 63 69 9a be 41 75 8d be f1 bb 91 be 57 f7 89 be
       -0.3015853 -0.2762852 -0.284637 -0.26946518
000280 60 b4 aa be 11 3a a5 3e da ad 8e 3e ba 2c 93 3e
       -0.3334074 0.32270864 0.27867013 0.2874506
000290 32 80 9c 3e f3 c6 bf bc 50 d9 3f 3c 8e 09 07 bc
       0.30566555 -0.023410296 0.011709526 -0.008242024
0002a0 78 04 0c 3c 5c 96 17 3c 80 39 0b bc 3a 2f f2 3c
       0.008545987 0.009252157 -0.008497596 0.029563535
0002b0 8e 30 ce bc 23 f8 7d be 1d d7 8b be d3 44 87 be
       -0.025169637 -0.24801688 -0.27312556 -0.26419696
0002c0 a1 d1 8a be 52 e5 9f be bb c1 a3 be c7 27 8d be
       -0.2711306 -0.31229645 -0.31983742 -0.2756941
0002d0 1b 37 a3 be b8 8c a0 be 30 e6 a4 be 73 7b 99 be
       -0.3187798 -0.3135736 -0.3220687 -0.29976997
0002e0 48 9f 8e be d8 e3 96 be 57 24 a6 be 61 79 a5 be
       -0.27855897 -0.29470706 -0.324496 -0.32319167
0002f0 01 32 ab be 7d da 8a be 0c 17 a6 3e 8c a8 89 3e
       -0.33436587 -0.27119818 0.32439458 0.26886404
000300 5d cd 9b 3e 6a d6 a4 3e 70 4b 6b 3c 8c 6f 96 3c
       0.30430117 0.32194835 0.014361247 0.018363737
000310 f0 10 af bc 50 c3 06 bb 18 be 37 3c a0 4e 8b 3a
       -0.021370381 -0.0020563193 0.0112147555 0.001062829
000320 47 92 08 3d 63 0e 94 be e3 6a 9c be a5 8f 93 be
       0.033342626 -0.28917226 -0.30550298 -0.2882053
000330 8d 43 aa be ac 56 88 be 1a 09 84 be 2d 9a 8f 3e
       -0.33254662 -0.26628625 -0.25788194 0.28047314
000340 52 72 94 be 83 95 92 be 03 c7 87 be 98 0c a8 be
       -0.2899347 -0.28629693 -0.2651902 -0.32822108
000350 65 1a 97 be d4 fe 9b be dd 9e a6 be bf 2b 9c be
       -0.29512325 -0.30467856 -0.32543078 -0.30502126
000360 c4 da 8d be 59 e6 9e be e6 94 9e be 26 c8 a2 3e
       -0.27705967 -0.31035116 -0.30972975 0.31793326
000370 38 ab a9 3c 30 a8 83 3b fb fb 05 3d 6a d1 67 bc
       0.020711526 0.0040178522 0.03271101 -0.014149049
000380 86 37 f9 3c a2 1f b7 3c e1 5b 9a 3e 84 6f a5 3e
       0.030421983 0.02235395 0.30148223 0.32311642
000390 12 4e 95 3e 74 d0 8e 3e a7 a2 81 be dd 24 8b be
       0.29161125 0.27893412 -0.25319406 -0.27176562
0003a0 93 46 9b 3e 36 ff 92 3e 65 e2 89 3e 90 d6 a7 be
       0.3032728 0.28710335 0.26930538 -0.32780886
0003b0 de c6 a1 be c4 af 95 be a7 a8 92 be e4 0d ab be
       -0.31597036 -0.2923566 -0.28644297 -0.33409035
0003c0 5f ae a4 be 25 29 a0 be cd 25 a3 be 25 2f a6 be
       -0.32164285 -0.3128139 -0.31864777 -0.32457843
0003d0 e9 8e a9 be 19 65 a7 be 56 23 93 be 62 22 8d 3e
       -0.33116844 -0.3269432 -0.28737897 0.27565295
0003e0 ca 3a 8d 3e 7d 15 87 3e 3e e1 ef 3c ec bc be 3c
       0.27583915 0.26383582 0.029282209 0.023283444
0003f0 db 90 82 3e 38 b0 91 3e b5 f0 a4 3e 1b 09 9f 3e
       0.2550114 0.28454757 0.32214895 0.31061634

2.weight f4 [10, 16]
000000 bb 3f 8d 3d 67 cb ae be 04 f3 da 3e 50 5f a9 c0
       0.06896921 -0.3413956 0.4276353 -5.292885
000010 66 fe 08 3f cf 0b 1d 40 1d 06 00 40 ff a0 d2 c0
       0.5351318 2.4538457 2.0003731 -6.582153
000020 df 35 99 c0 3f ba 6a c0 14 05 4a bf 0a 00 16 3e
       -4.787826 -3.6676176 -0.78914 0.14648452
000030 9c 8b 15 c1 b6 d2 9b 40 4f d1 31 be 00 b7 e8 40
       -9.346584 4.8694715 -0.17365001 7.272339
000040 82 e7 1d be 2a 0b 58 3e 8c 4f 06 41 0d 32 cf c0
       -0.15420344 0.21098009 8.394421 -6.4748597
000050 f8 8e 1d be e2 62 b6 c0 e3 0c 43 c0 92 20 b3 c0
       -0.1538657 -5.6995707 -3.0476615 -5.597726
000060 25 25 c1 40 65 04 a4 40 66 aa 75 c0 af 39 cf be
       6.0357842 5.1255364 -3.8385253 -0.40473697
000070 80 4a 06 41 97 e6 4a c1 da ba bd 3d 20 17 00 c1
       8.393188 -12.681296 0.09264155 -8.005646
000080 28 c4 9d be 32 f7 02 bf 88 89 21 3f 19 3f 01 bc
       -0.30813718 -0.5115844 0.6310048 -0.007888579
000090 7c d8 c8 be 43 68 d7 40 37 11 5c c0 32 aa 91 c0
       -0.39227664 6.7314773 -3.4385507 -4.552026
0000a0 d3 3b 26 c0 17 50 27 c0 c9 2f 12 c0 fa 08 d1 be
       -2.5974014 -2.6142633 -2.2841666 -0.4082716
0000b0 0f d1 ab 40 4c 86 af 40 22 51 d5 3d fc 09 09 bf
       5.36927 5.4851437 0.104158655 -0.5353086
0000c0 50 20 0b 3e b1 e3 9d 3e 0e 12 62 40 91 a8 b6 c0
       0.13586545 0.30837777 3.532352 -5.708077
0000d0 af 4e 0c be e4 cf 08 c0 e0 32 a1 40 ac cf 5d 40
       -0.1370189 -2.1376886 5.0374603 3.4658003
0000e0 9e a5 ac c0 da 15 8b 3f c2 14 00 c1 2f e1 d4 be
       -5.395217 1.0866044 -8.005068 -0.4157805
0000f0 12 70 28 40 99 44 d9 bf b0 ae c8 3e e3 7c d6 c0
       2.6318402 -1.6974059 0.39195776 -6.702745
000100 4f 66 80 bd c4 f6 d8 bd bd 8b 1d c1 14 f8 1a 40
       -0.06269514 -0.10593942 -9.846616 2.4213915
000110 67 49 c3 bd 9b e7 c7 40 b4 1d ae c0 e9 66 6e 40
       -0.09535485 6.247022 -5.441126 3.7250311
000120 1e 5b 22 c0 ab 04 a7 c0 bb c0 80 40 83 63 4e bd
       -2.5368114 -5.21932 4.0235267 -0.05038787
000130 38 c9 8b c0 63 bc e4 bf 97 42 f5 3d de 6b 84 c0
       -4.368313 -1.7869991 0.11975592 -4.1381674
000140 e3 04 03 3f 91 7d 82 3e bd de 00 41 5c 08 04 c1
       0.5117933 0.25486425 8.054379 -8.252041
000150 b1 ff 40 3e 35 2f 9a bf 29 9d 7e 40 99 7e ac 3f
       0.18847539 -1.2045656 3.9783423 1.3476135
000160 64 ec a6 bf ce 33 f9 c0 55 db 81 40 cc c0 1f be
       -1.3040891 -7.787574 4.058024 -0.1560089
000170 41 82 a5 3f 13 2b df c0 3e 03 b2 be 3b 1c c2 3f
       1.2930375 -6.974008 -0.347681 1.5164865
000180 38 5f 4d 3e f4 51 1a be c6 b5 25 c0 8b 6e ce 40
       0.20055854 -0.15070325 -2.5892196 6.450994
000190 3b 83 f6 bd a4 85 7e 40 e1 6e 44 be cd 56 53 c1
       -0.12036749 3.9769068 -0.19182922 -13.208692
0001a0 2d ff c5 40 61 8d 79 c0 56 4c a0 40 1c 20 ef bd
       6.1873994 -3.899254 5.0093184 -0.11676046
0001b0 21 06 90 c0 14 f8 34 40 ce f4 1f bf cb eb c1 c0
       -4.500748 2.8276415 -0.6248292 -6.0600333
0001c0 ae 28 5e be a5 69 9b bd 10 50 0b 3f 84 c1 e5 40
       -0.21695206 -0.075885095 0.5441904 7.1798725
0001d0 33 f4 01 3e 21 7e ce bd 42 32 0d c1 37 10 1f 3f
       0.12690811 -0.10082651 -8.82477 0.62134117
0001e0 49 63 ba c0 8c b4 00 40 c8 b4 d4 c0 8b 62 75 3e
       -5.82462 2.0110197 -6.647068 0.23963372
0001f0 ee 99 83 40 13 2f 87 c0 33 69 27 3e 38 2a bc 40
       4.1125402 -4.2244964 0.16348724 5.8801537
000200 4f 1e 62 bd 9a f2 02 3e d8 f9 f8 c0 5d 81 b1 c0
       -0.055204686 0.12787858 -7.7804985 -5.5470414
000210 ed 85 06 bf d9 4c 44 c1 81 1b 04 40 4f 4f a5 3e
       -0.52548105 -12.268762 2.0641787 0.3228707
000220 b1 9b 98 c0 96 8f 89 40 c6 3b d8 40 ff 87 d8 3e
       -4.7690053 4.2987776 6.7572966 0.42291257
000230 a2 56 d6 bf 94 fb 6d c0 81 9d f8 3d e8 92 97 bf
       -1.6745188 -3.71848 0.121394165 -1.1841707
000240 36 89 05 bf 76 e5 a7 3e 3f 86 f8 c0 89 07 ab 3f
       -0.5216249 0.32792252 -7.7663875 1.3361675
000250 60 0b 82 be 11 d2 16 c1 c2 1d 5f bf 6a ca 90 40
       -0.25399303 -9.426286 -0.8715478 4.5247087
000260 44 55 a8 40 ed 40 13 40 05 58 37 c0 93 d4 93 be
       5.2604084 2.3008378 -2.8647473 -0.2887312
000270 87 ad 24 c1 c2 a8 88 3d ae 95 dd be e8 6a d9 3e
       -10.292365 0.06672813 -0.4327826 0.42464375
