model-params/fashion-classifier.pth (torch, 51987 bytes, 2 tensors)

0.weight f4 [16, 784]
000000 ab a2 79 c0 f4 c0 e3 bf cf dc 18 c0 1d 52 2a 40
       -3.9005535 -1.779326 -2.388477 2.6612618
000010 bd 34 13 c1 91 a2 48 c1 20 29 98 c1 ab 7a 9f c1
       -9.200376 -12.539689 -19.02008 -19.934896
000020 e0 91 3f c1 2c 1a 80 c0 00 f3 01 c0 c2 e5 16 c0
       -11.973114 -4.003195 -2.0304565 -2.3577733
000030 3f 80 2a c0 1a 79 29 c0 08 92 a5 3d d0 b5 b5 bf
       -2.6640775 -2.6480165 0.08084494 -1.419611
000040 84 8a f7 be 6c 0c 4e 40 56 a6 c7 3f 7b fd 62 c1
       -0.48347867 3.2195082 1.5597637 -14.186885
000050 df a7 ad c1 51 64 b0 c1 e7 13 8a c1 79 fa de c0
       -21.706968 -22.048983 -17.259718 -6.9680753
000060 bd 3a 9b 40 df f2 dd 40 f2 44 c9 40 9d ee b1 c0
       4.85092 6.9358974 6.289666 -5.5603776
000070 28 38 dd bf 34 e1 b3 3f 99 77 12 c0 bb 3e 67 c0
       -1.7282763 1.4053102 -2.2885497 -3.6132038
000080 97 e5 4b c0 58 57 06 c1 19 f0 38 c1 90 fc 82 bf
       -3.185888 -8.396324 -11.558618 -1.0233326
000090 25 df 1a bf 8a ca 27 bf bd bc 57 c0 78 bf d6 bf
       -0.6049674 -0.65543425 -3.3708947 -1.6777182
0000a0 4d bd f2 40 e3 e6 11 41 6a 31 ed 40 99 ca 33 41
       7.585608 9.118869 7.412282 11.236962
0000b0 69 c1 ae 40 c4 68 01 c0 53 ae 38 3e 94 c1 6f c0
       5.4611096 -2.0220194 0.1803525 -3.74619
0000c0 2c 38 8c c0 49 06 d8 c0 b5 ad e7 c0 98 a0 6b 3c
       -4.381857 -6.750767 -7.2399545 0.01438155
0000d0 86 99 dc 40 6a 39 cc 40 f0 1a d2 40 8a 45 02 c0
       6.8937407 6.3820086 6.5657883 -2.0354943
0000e0 aa 7e b5 40 29 9d 26 40 93 ab e2 40 11 0f 20 c0
       5.671712 2.6033423 7.083444 -2.5009196
0000f0 9c 24 d1 bf bd 7c 06 40 c8 8d 12 41 1e fd 12 41
       -1.6339297 2.1013634 9.159615 9.186796
000100 56 e3 c9 be bc 36 00 c0 88 f5 aa bf 10 11 30 3f
       -0.39431256 -2.0033407 -1.335618 0.68776035
000110 5f 72 99 40 fd ba d6 40 59 f6 91 40 4b 58 8d 40
       4.7952113 6.7103257 4.5613217 4.417028
000120 87 51 85 3f 90 35 60 bf 67 a5 0c c0 ac 92 5b c0
       1.0415505 -0.8758173 -2.1975954 -3.4308271
000130 d9 d4 fc 3f d5 d9 a0 40 c2 fe 0d 41 99 5a a0 3f
       1.9752456 5.026591 8.874697 1.2527648
000140 64 01 60 40 c4 2f 26 41 00 99 a8 40 3a 4a 40 41
       3.5000849 10.386662 5.2686768 12.018122
000150 6e 08 ee 40 08 cf ca 40 0a 8e 38 41 e2 2f 1a bf
       7.438529 6.3377724 11.5346775 -0.60229313
000160 fe 4c 49 40 0c b3 e4 40 2b 14 da 40 91 98 9f 3f
       3.1453242 7.1468563 6.814962 1.2468435
000170 00 a0 b2 3e 4d 6c 39 3e 82 c6 2e bf 8c 42 df bf
       0.34887695 0.1810772 -0.6827165 -1.7442183
000180 a2 83 13 40 2b ff 09 bf 3d ed 8f c0 0a 5b 38 c0
       2.3049092 -0.5390498 -4.4977098 -2.8805566
000190 4b ca 19 c0 e0 7e 43 c0 b4 6a ee bf dd be e6 bf
       -2.402972 -3.0546188 -1.8626313 -1.8026997
0001a0 58 81 33 c0 50 8e 46 3f 95 a9 d3 40 e0 18 f5 40
       -2.8047695 0.775609 6.614451 7.6592865
0001b0 54 ac 7e 40 11 36 f4 40 74 d1 8e bf 22 1c 34 40
       3.979268 7.6316 -1.115767 2.814217
0001c0 17 4e 25 41 69 e3 ef 40 76 38 e0 3f 61 95 75 40
       10.331565 7.49651 1.751723 3.8372424
0001d0 49 4d 02 41 c9 0a 93 40 d1 1b 95 40 71 89 27 40
       8.143868 4.5950665 4.6596456 2.6177638
0001e0 72 6b 3c bd 1c 2f 7a 3f aa 7e 8c bf 9e a2 7c c0
       -0.046000905 0.97728133 -1.0976155 -3.9474254
0001f0 d7 5e 20 c0 31 ae 8c c0 46 a3 e5 c0 40 60 a3 c0
       -2.5057886 -4.3962636 -7.176181 -5.1054993
000200 33 96 c3 c0 92 f4 88 c0 a9 0e 55 c0 ea 12 fc bf
       -6.112085 -4.279855 -3.3290198 -1.9693272
000210 9e d5 cb bf 9f 93 c3 be a6 24 4a 3f ab 9d 00 41
       -1.5924566 -0.38198563 0.7896217 8.038493
000220 fe 88 8d 40 f3 b7 af 40 43 0e 9a 3f cf aa a6 bd
       4.4229727 5.4912047 1.2035602 -0.08138048
000230 99 73 7d 41 3e 01 22 41 e4 ea 9f bd d9 8c a2 40
       15.840722 10.125303 -0.07808474 5.0796933
000240 2a 2c e2 40 23 94 9a 40 9a 30 97 40 56 7b 32 3f
       7.067891 4.830583 4.724683 0.69719446
000250 0b e7 70 3e 03 33 26 c0 30 e0 17 bf b6 ea 78 c0
       0.23525636 -2.5968635 -0.5932646 -3.8893256
000260 2f e5 45 c0 7a 6d aa c0 5c 09 df c0 20 21 aa c0
       -3.0921133 -5.325864 -6.9698925 -5.3165436
000270 88 ba c3 c0 5a 9d 6a c0 a1 9e 8c c0 c8 ef d7 bf
       -6.11652 -3.665854 -4.394364 -1.687005
000280 0f 97 40 bf c6 b7 31 3d ed 2f 81 3f 69 b1 e1 40
       -0.752305 0.04338815 1.0092751 7.0529065
000290 d8 cb a4 40 4b 9b af 40 cf 5d ba 3f 63 a9 a1 40
       5.1498833 5.4877067 1.4559878 5.051927
0002a0 48 3d 61 41 eb f1 07 41 da 31 f6 be 45 f5 16 41
       14.077461 8.496562 -0.4808491 9.43488
0002b0 85 28 ce 40 2a c9 a6 40 72 ef 82 40 d2 f6 58 40
       6.442446 5.212056 4.091729 3.3900647
0002c0 a1 66 05 40 fc e5 eb bf 63 25 93 bf 10 07 25 c0
       2.084389 -1.8429561 -1.1495785 -2.578556
0002d0 11 01 69 bf 82 01 3c c0 b8 e9 97 c0 45 7c 14 c0
       -0.9101725 -2.937592 -4.74728 -2.3200848
0002e0 1e f2 6a c0 68 19 ae c0 e1 9d e5 c0 81 cd bf c0
       -3.6710277 -5.4406013 -7.1755223 -5.993836
0002f0 c6 28 1b c0 99 d6 51 3f 57 6d 48 40 c1 71 95 40
       -2.4243636 0.81968075 3.1316736 4.670136
000300 1f ab 41 40 76 dd e8 40 f8 34 ca 40 e0 96 11 41
       3.0260694 7.277034 6.318966 9.099335
000310 d3 82 81 41 ee 9b 86 40 3c 5d e9 3f 15 f2 16 41
       16.188879 4.2065344 1.8231578 9.434102
000320 fc 98 79 40 07 69 44 40 2a aa b0 40 9b fb f0 40
       3.8999624 3.0689104 5.520772 7.5307136
000330 69 e7 a3 40 dd a6 d1 be f6 35 5e bf b2 eb c5 be
       5.1219983 -0.4094762 -0.8680109 -0.38656384
000340 01 1a ad 3e b3 22 41 c0 96 ab 75 c0 1d 9e 42 c0
       0.33808902 -3.0177429 -3.8385978 -3.0409005
000350 2a 67 0b c0 ca 74 a7 c0 26 61 01 c1 5b 18 e1 c0
       -2.1781716 -5.2330065 -8.086218 -7.034223
000360 42 b4 c3 bf 37 eb 19 40 fb 0a 12 40 08 70 18 40
       -1.5289385 2.4049814 2.2819202 2.3818378
000370 58 01 50 40 2b 7d e2 40 8c 58 f8 40 77 9e 3f 41
       3.250082 7.0777793 7.760809 11.976188
000380 ca 33 67 41 0a 05 c4 40 fe e8 94 40 bc 6b 16 41
       14.450144 6.125615 4.6534414 9.401302
000390 f8 5c 3c 40 89 bd 0a 40 e2 37 a6 40 8c 8a 0a 41
       2.9431744 2.1678183 5.1943216 8.658825
0003a0 9f dc e9 40 6f 70 16 40 44 ad a4 3e 27 9d 57 3f
       7.3081813 2.3506124 0.3216344 0.8422417
0003b0 98 e8 c4 3f 30 8b fb bf b5 a7 ed bf d1 f0 40 bf
       1.5383482 -1.9651852 -1.8566805 -0.75367457
0003c0 98 b8 b4 bf ea 31 59 c0 55 ec a0 c0 1c da b3 be
       -1.4118834 -3.3936715 -5.028849 -0.35127342
0003d0 fd d4 16 40 f4 32 08 40 1a 66 84 3f c8 cb ac 3f
       2.3567498 2.12811 1.0343659 1.3499689
0003e0 3d 8a aa 3f 8d ac 60 40 73 65 bb 40 19 83 97 40
       1.3323437 3.5105317 5.856134 4.734753
0003f0 2d b4 8c 41 16 33 b5 40 59 db 76 40 a0 ee f2 40
       17.587976 5.662486 3.857138 7.591629

2.weight f4 [10, 16]
000000 1c 09 18 40 4b c7 04 bf 77 94 0a bf 86 6c 15 bf
       2.375556 -0.51866597 -0.5413279 -0.5836872
000010 06 fd 17 3e c7 1b 2b c0 e4 6a 10 c0 39 dc 01 c0
       0.14842615 -2.6735704 -2.256524 -2.0290663
000020 86 08 ef bf ee b5 12 40 d3 38 0d c0 ae 12 3f 40
       -1.8674476 2.292354 -2.2065933 2.985515
000030 a6 11 56 c0 86 41 d7 3f 79 ac 58 40 64 b2 8e c0
       -3.3448272 1.6816871 3.385527 -4.459276
000040 7c a3 f4 c0 09 2c f9 bd f6 51 a5 c0 fd 57 ba 40
       -7.6449566 -0.12166602 -5.166255 5.8232408
000050 85 43 99 3e 65 ee 76 c0 5f f0 9c 40 8b 1c 4e 40
       0.29934326 -3.8583004 4.904342 3.2204921
000060 51 80 3b c0 fd 73 63 c0 c9 93 aa c0 0b 66 02 40
       -2.9297068 -3.5539544 -5.33054 2.0374782
000070 7e d0 26 c0 1a 89 bc be 7b 30 f5 3f 50 c0 e0 c0
       -2.6064754 -0.3682335 1.915542 -7.0234756
000080 03 57 01 40 dd 94 f7 be 21 a1 9c 3e 82 22 04 40
       2.0209358 -0.4835576 0.30591682 2.0646062
000090 55 bb 3e be 31 9f d8 3f 9e 7e 89 3f a9 cc 05 c0
       -0.18626149 1.6923581 1.0741765 -2.0906165
0000a0 60 a1 3c bf d6 4b 80 c0 93 9e b8 c0 a2 3c d9 bf
       -0.7368374 -4.0092573 -5.769357 -1.6971629
0000b0 77 9e d5 bf b8 45 2e 40 23 7d b2 bf d0 eb 7a c0
       -1.6688985 2.7230053 -1.3944439 -3.9206429
0000c0 86 dc 8a bf 42 61 bf bd 37 24 35 40 24 a2 1c c0
       -1.0848548 -0.09344722 2.8303354 -2.4473963
0000d0 1f 64 a2 be a2 f8 e2 c0 14 72 04 40 56 39 f0 3f
       -0.3171701 -7.0928507 2.0694628 1.8767498
0000e0 47 ab 2a bf cd fd c2 c0 67 df 13 c0 f4 ac 79 3f
       -0.666676 -6.0934815 -2.3105104 0.9752953
0000f0 67 7d e0 bf 25 4c cd 3f 90 4f f2 bf 3f ba 91 3f
       -1.753827 1.6038862 -1.893053 1.1384963
000100 70 2f c4 be f8 81 5e 3e 64 89 19 40 cb de f4 3f
       -0.38317442 0.21729267 2.3990107 1.9130491
000110 95 d1 a2 bd 8f 88 cc 3f 77 13 a7 be 35 72 1f 3f
       -0.07950131 1.5979174 -0.32632038 0.6228364
000120 56 e7 0e 40 bd ba 03 c1 3a dc ae bf f0 28 81 c0
       2.2328696 -8.23309 -1.3660958 -4.0362473
000130 4f da 0b c0 ce 41 a6 bf d7 bc 21 3f dd 9b db c0
       -2.1851995 -1.2988832 0.6317877 -6.8627763
000140 d7 8e 0f c0 ad a0 f6 be 88 86 a6 c0 7b 08 b1 3f
       -2.2430933 -0.4816946 -5.2039223 1.3830713
000150 48 aa 21 be d8 a5 74 bd ca bf 16 41 b8 b6 1a c1
       -0.15787613 -0.059728473 9.4218235 -9.669609
000160 c3 a9 a3 bf 49 18 06 40 cf aa df 40 73 2c 93 40
       -1.2786182 2.0952322 6.9896007 4.599176
000170 3c 37 c0 3c 94 b6 0a c1 cf 34 ce bf b4 9a 99 40
       0.023463838 -8.669575 -1.6109866 4.8001347
000180 34 c2 bb 3f 5f 85 e1 be ab af 09 40 a7 2d f8 be
       1.4668641 -0.44047067 2.151347 -0.4847233
000190 01 da 33 be b8 c1 89 bf 0a 02 d8 bf 0b 67 58 c0
       -0.1756363 -1.0762243 -1.6875622 -3.3812892
0001a0 6c c7 bb bf 2c 3a af bf 95 65 a6 40 9f 9d 92 3f
       -1.4670234 -1.3689628 5.1999 1.1454352
0001b0 43 8c ec 3f 62 44 e8 3e a0 68 e8 3f 7e fe 01 c1
       1.8480304 0.45364672 1.8156929 -8.124632
0001c0 7f 2f f0 c0 e8 d4 50 3e 6b a8 dd c0 d8 c8 24 c1
       -7.505798 0.20393717 -6.926809 -10.299034
0001d0 28 70 b9 be 9f c5 28 40 e6 22 6d c0 d4 aa 93 bf
       -0.3621838 2.6370618 -3.705255 -1.1536508
0001e0 11 bc ac 40 01 26 58 40 e4 ef 2c c0 08 23 08 c1
       5.3979573 3.3773196 -2.7021418 -8.508553
0001f0 03 2f 32 40 c6 a7 9a c0 09 7a 5a c0 37 85 ef 3f
       2.7841194 -4.83298 -3.4136984 1.8712529
000200 6f 1a 59 40 81 6e 98 3d 71 94 2f 3e 4a 23 08 40
       3.3922384 0.07442952 0.1714647 2.1271539
000210 9d 87 cc bd b8 59 7a c0 90 0b f1 c0 da 9b 85 be
       -0.09986804 -3.911726 -7.5326614 -0.26095468
000220 46 00 90 40 f3 5e 31 3f c0 4b cb c0 81 ea dc 3e
       4.5000334 0.69285506 -6.352997 0.43147662
000230 6f 1e 48 be fa d4 b5 c0 01 fb 7f c0 11 5e e0 bf
       -0.1954286 -5.682248 -3.999695 -1.7528707
000240 1b 33 97 3f e2 01 19 be d1 a4 4d c1 e4 c2 29 c1
       1.1812471 -0.14942124 -12.852738 -10.610081
000250 3a 50 56 be 8c db fd 3f ff 83 e4 c0 d1 cf ca 40
       -0.20929042 1.9832625 -7.141113 6.337868
000260 4e c3 9c c0 f8 09 01 3f ab d4 04 40 a6 19 0f c1
       -4.898841 0.50405836 2.0754802 -8.943762
000270 16 ef 1c 40 6b 85 3b c0 e7 ba 11 c1 d4 a1 da 3f
       2.4520926 -2.9300182 -9.10813 1.7080636
